model-updated.pkl (torch, 90063 bytes, 8 tensors)

fc1.weight f4 [100, 8]
00000000: 0d7d 9c3d ada3 383e 964b a0bd 47cb 1fbd
00000010: 7140 74be d9d8 cc3d 61ee 763e 23aa 323e
00000020: 6a5f dabe 9657 5e3d 9c85 6c3e 5c3c 953d
00000030: 067b d5be f213 e33d 57c5 a13e d6d2 9d3e
00000040: db73 9b3c a16a 593c ad34 503d 2254 1ebc
00000050: e336 f9bd 542b f63c 349b b8be 85a4 56bc
00000060: 7895 cf3e ca87 b13d c734 263e 3220 913e
00000070: b92b a1bd 4e01 b53e c858 a1bd 0d94 07be
00000080: 3d32 b4bd bde4 b83e 1c56 e3be 25e1 8e3e
00000090: 76f4 8abe 3f5f b53e 5050 bdbe ca70 b93e
000000a0: 6603 33be 3acc 483c 71a8 823d 39c5 fcbd
000000b0: 13b8 883d dee6 653c b8e6 1b3e 7fd4 92be
000000c0: 56be b4be 1002 d4ba 260c d23e f4c0 ccbc
000000d0: 0915 823e a932 d23e d44f 2dbe b4f7 c2be
000000e0: bf50 aa3d 17ce df3e cf92 32be ec2f 8ab8
000000f0: 7d66 853e b414 e0bd a2a9 64be e5f6 0abe
00000100: ff22 923d aadc b0be 0270 f4be c690 923e
00000110: 0673 c7be e165 35be d025 a5be bd34 733e
00000120: bdac 79be 15d5 c0be 0d61 ddbd 928f b4be
00000130: c679 bf3e 6643 3cbc b730 b93c 7ae2 09be
00000140: 880d c4be 57e7 c0be 3eca 11be c2cc e33e
00000150: a719 083e 9849 433e 86d7 02be 2e09 683e
00000160: a598 a43d d16c c93c 866e 0eba c1ee ab3e
00000170: 21cd bbbe 2b0d 7e3e 58f1 8b3e b489 d5bd
00000180: 1db0 933e c141 eebc 355e 49be f6fd b2be
00000190: 6136 ad3e 98fe 7b3e 83f0 563e 1c39 b8be
000001a0: df65 36be 75c6 b4be 59d7 fd3e 5f28 123e
000001b0: 987e 7c3e 7e1d 043e 0f74 e73d 2cfd fcba
000001c0: 4889 283e f5d0 f2be b038 a1bb 1252 b63e
000001d0: b27d 423e e696 b5be 13e8 1cbe 0618 ac3e
000001e0: a621 19bd f8c6 003b 8095 cbbe 97af 85be
000001f0: 1dcc 84bd 112a 973e 2be6 b33c 4101 9d3e
00000200: 8913 d73e d53b d43e 7e05 873c 751d 1d3e
00000210: 3ea1 afbe 8d73 423e 041e 843e 8402 aabe
00000220: f04b e33d 0fd7 dabe 1550 103c 597e b53e
00000230: a86e a0bb 01bf b3ba 52b6 403c b5f9 7b3e
00000240: 6c04 a33e 1ff2 223f 429c 6e3d f59c 07be
00000250: 5baf df3c bb16 88be 3096 dbbe 07f4 8d3c
00000260: 3353 31bf 72ec 3e3e 6efc 023e 693b 9cbe
00000270: f659 8e3e 3257 41bd b5f0 53be 236b c23e
00000280: 4881 7ebe 4f61 b73e 9192 b5bd 3821 fcbe
00000290: 1b21 803e bf24 dc3d c703 f03d 4e94 983d
000002a0: ac34 48be 0a00 c5be 40e7 773e cc24 843d
000002b0: d828 babe 2078 123e 07bc 983c 4ea5 98bd
000002c0: 003a 17be 0edb 863e 3250 eb3d 8f2c a2bb
000002d0: d087 f7bb 2592 d73e f9e9 98be 3a92 a43e
000002e0: c014 82be 3b15 0bbe 085e d73d 177c ad3e
000002f0: efad 73be 66d5 e73e 5371 26be a986 873e
00000300: 82e5 c13e 5747 233c a3f0 81be c955 1b3e
00000310: 40ae c1be 212c 983e cfa5 8bbd d192 473e
00000320: c264 f2bc caf8 073d ab35 07bf a014 573e
00000330: 8c49 133e 9a0c 14bd a907 9d3e 1c38 02bd
00000340: 8989 003f 0363 7dbd a591 793d 947f dbbd
00000350: c2a4 6dbe 0b39 703e 6168 afbe ab3a 44be
00000360: c997 013f bb63 2c3e 104c 92be 91ca 66bd
00000370: fe66 babe d188 093e 9c5c debe 1db9 9f3d
00000380: 2a37 703e 0e8f 4f3e 5082 cd3c 1cc9 70be
00000390: 5911 d73e 2779 2bbe 056d a73e 104a 893d
000003a0: 630b 333e 761f 1b3f 1fa1 0dbe 6df4 323d
000003b0: 5ae1 babe 281e 013f 972f b03d 7d8d 02be
000003c0: dd13 e63e e4ab 5b3e 8517 a83e 5645 e9be
000003d0: 545e 3cbe 0ea8 c1bb 37b0 c0bd d6a2 a4be
000003e0: 2d04 adbe df8c 13bf 5c8c a63e 9bfc 45bb
000003f0: 45b0 2fbe a1a6 c33e 796e 8e3a 1665 95be
0.07641039 0.18031187 -0.07826917 -0.03901222 -0.23852707 0.10002298 0.24114372 0.17447715
-0.4265092 0.054282747 0.23097843 0.07286903 -0.41695422 0.11087789 0.3159587 0.30824918
0.018976143 0.013270051 0.050831486 -0.0096636135 -0.12168672 0.030049957 -0.3605591 -0.013100748
0.40543723 0.08668478 0.1623107 0.28344876 -0.078696676 0.35352558 -0.07878262 -0.1324007
-0.08798645 0.36112013 -0.44401634 0.27906147 -0.27139634 0.3542423 -0.36975336 0.36218864
-0.17481765 0.012255723 0.06379784 -0.12342305 0.06675734 0.014032094 0.15224731 -0.28677747
-0.35301465 -0.0016174931 0.41024894 -0.024994351 0.25406674 0.41054276 -0.16924983 -0.38079607
0.08316182 0.43711922 -0.17438816 -6.589279e-05 0.26054755 -0.10941449 -0.22330335 -0.13570745
0.07135581 -0.34543353 -0.47741705 0.28626078 -0.38954943 -0.17714645 -0.3225541 0.23750587
-0.243823 -0.3766257 -0.108095266 -0.35265785 0.37397593 -0.011490678 0.022606237 -0.134653
-0.38291574 -0.37676498 -0.14237306 0.44492155 0.13291036 0.19071043 -0.12777528 0.22659752
0.08036927 0.02458802 -0.00054333394 0.33580592 -0.36679938 0.2480971 0.27332568 -0.104266554
0.288453 -0.029084088 -0.19664843 -0.34959382 0.3383055 0.24608839 0.20990185 -0.3598107
-0.17812298 -0.3530766 0.4957836 0.14273213 0.24657667 0.12901875 0.11301433 -0.0019301525
0.16458619 -0.47425047 -0.0049200878 0.3560949 0.18993261 -0.3546669 -0.15322904 0.33612078
-0.037385605 0.0019649845 -0.39762497 -0.26110527 -0.06484244 0.29524282 0.021960339 0.3066502
0.42007092 0.41451898 0.016482111 0.15343268 -0.34302706 0.18989392 0.2580415 -0.33205044
0.11098468 -0.42742202 0.008808156 0.35447958 -0.0048960038 -0.001371354 0.011762219 0.24606974
0.3183931 0.636507 0.058254488 -0.13243468 0.027305296 -0.26579842 -0.4288802 0.017328275
-0.69267577 0.18644884 0.12791607 -0.30514076 0.2780301 -0.047202297 -0.20697291 0.37972364
-0.24854004 0.35816428 -0.08865846 -0.49244094 0.25025257 0.10749196 0.117194705 0.07450162
-0.19551343 -0.38476592 0.24209309 0.06452331 -0.36359286 0.14303637 0.018644346 -0.07453404
-0.14768219 0.26339 0.114899054 -0.0049491595 -0.007554032 0.42103687 -0.29866007 0.32142812
-0.25406456 -0.13582318 0.10515982 0.33883736 -0.23796819 0.45279998 -0.16254167 0.26469925
0.37870413 0.009965739 -0.25378904 0.15169443 -0.37828255 0.29721168 -0.06818735 0.194896
-0.02958906 0.033196248 -0.52816266 0.21003962 0.14383525 -0.03614483 0.30669907 -0.03179179
0.5020986 -0.061862003 0.060929913 -0.10717693 -0.23207381 0.2345926 -0.34259322 -0.19163005
0.5062223 0.16834919 -0.28573656 -0.056345526 -0.36406702 0.13431098 -0.4343003 0.077989794
0.23458543 0.20269415 0.025086552 -0.23514217 0.42005423 -0.16745435 0.32700363 0.067035794
0.17484812 0.6059488 -0.13830994 0.043690134 -0.36500055 0.5043664 0.08602827 -0.12749286
0.4493703 0.2145229 0.32830444 -0.45560712 -0.18395358 -0.0059099263 -0.0940861 -0.32155484
-0.33792248 -0.5763683 0.3252896 -0.003021038 -0.17157085 0.38213065 0.0010866664 -0.29178685

fc1.bias f4 [100]
00000000: 2e01 f63d 6cba 943e d87b 28be 3784 d5bd
00000010: 5fde 9a3e 1020 41be 71f6 3bbe 79fd bf3d
00000020: 5227 4f3e 40a5 9f3d 713b 23be a558 873e
00000030: 236c 5c3e 5d19 dd3d 9ced 2b3e 36cd 55be
00000040: a992 b1bc 3d82 0cbe 623a 5dbe d514 a63e
00000050: 972f 8b3e 3b32 9c3b 2b82 e4bd cf33 18be
00000060: 17be 2f3c 5914 f8bd 0c56 7d3d 501b 81bd
00000070: 085c 69bd 06a0 f3bd bab4 5ebd 574a a2bc
00000080: 849f 693e 6e27 833e 42db 3abe ff0e 5c3d
00000090: d0c4 70be 7e4d 953e 76b0 273e 3537 593e
000000a0: 903d 5abe 591d 4f3e 41e5 b53c a7d3 d33d
000000b0: de70 c13c 5c92 9cbe bfdd b7bd 2b84 01be
000000c0: b514 303d 5312 823e 00e7 343e 41b8 89bd
000000d0: 6df5 bebd 6819 9e3e 1b54 c5bd 3a26 c8bc
000000e0: 54b4 263d b20a 8ebd 1cde 2c3d 4ee8 013e
000000f0: 3ccf c2bd 0362 443e dce3 9abe 1f25 72bc
00000100: a114 823e bb8e 1abd db5e 82bc 7c75 78be
00000110: 9768 033e 0cc4 06be ec1d 593e d9e8 8d3e
00000120: 3270 47bc 0211 80bd d3f3 7fbe 35b4 a83d
00000130: 3c16 55bb baf1 0b3e 5340 21bd de36 adbd
00000140: fa6f 183e f835 a7bc ce0e 89be 707b 4f3e
00000150: ed12 be3c 53c4 c3bc 9508 5d3e f16f b23e
00000160: 0cb2 943e 02bf 29be 9710 a3be 206b 0fbe
00000170: a957 30bd b049 babe 83ff 923d e061 39bd
00000180: eade d73d fc73 b33d cb0a 47be b9a4 0ebe
0.12011944 0.2904848 -0.16453493 -0.104256086 0.3024778 -0.18859887 -0.18355729 0.09374518
0.20229843 0.07795191 -0.15940644 0.26434818 0.21525626 0.10795853 0.1678986 -0.20879063
-0.021676378 -0.13721557 -0.21604303 0.3243777 0.27184746 0.00476673 -0.1115764 -0.14863513
0.010726473 -0.12113256 0.06184964 -0.063040376 -0.056972533 -0.118957564 -0.054371573 -0.019810839
0.22814757 0.2561602 -0.18247703 0.05372524 -0.23512578 0.29160684 0.16375908 0.21212466
-0.21312547 0.20226039 0.022204043 0.10343104 0.02361339 -0.30580413 -0.089778416 -0.12648074
0.042988498 0.25404605 0.17666245 -0.06724597 -0.09324155 0.30878758 -0.096351825 -0.02443229
0.040699318 -0.06935634 0.042204008 0.12686273 -0.09512183 0.19178014 -0.30251968 -0.014779358
0.25406364 -0.037733775 -0.015914371 -0.24263567 0.12832867 -0.13160723 0.2120282 0.2771671
-0.012172746 -0.06253244 -0.24995355 0.08237497 -0.0032514473 0.1366643 -0.039367985 -0.08457731
0.14886466 -0.020411476 -0.26769108 0.20261931 0.023202384 -0.023897326 0.21585305 0.3485103
0.2904209 -0.1657677 -0.31848595 -0.14005709 -0.04305235 -0.36384344 0.07177641 -0.045259356
0.10540564 0.08762357 -0.19437711 -0.13930024

fc2.weight f4 [100, 100]
00000000: 32e9 64bd 8eb6 eb3d b1a3 e8bd 1224 f13c
00000010: 19f9 153e 9dcf 9bbd 22a1 e8bc 5933 1abd
00000020: 28ca d33c 2587 843b ba8c a43d 9235 403d
00000030: b66a e13c 4857 173d 42a9 f43d 23cf c4bd
00000040: aafd ce3d e877 10bd f5f8 a4bd beee cd3d
00000050: 9bc2 f13d bed9 c8bd 09ab 81bd 8f7c 893d
00000060: d6c4 cabc 86cc c7bd 2c38 ccbd 722f 983d
00000070: a0c9 6cbd 22ac 493d 110e ccbd 4af4 343c
00000080: 3b05 453d 7827 0fbc 336e ec3a a8aa ab3d
00000090: bed4 e1bc 1817 593d 8400 f63d 40cd e4bd
000000a0: de11 97bd d125 c13c 33af 2b3d b12a 073e
000000b0: 4c27 4dbd 3132 b1bd ad7d 403c 19f5 8a3d
000000c0: 34fc 6bbd fcfc 8c3d 9406 ccbd 3280 dcbc
000000d0: c8e9 9abd 0101 203d 6829 be3d bcc1 3c3d
000000e0: c5a2 ad3d 5e3f f53d bbf3 03be 32c7 71bd
000000f0: b501 b93d ae41 643d 6f4e d5bc d55e ee3b
00000100: 234e a8bd 6cc8 c9bd 74c2 1bbc bb04 b7bd
00000110: 417f 643d a9e8 823d d0e8 a83c a7fc 06ba
00000120: 1095 303d 962d 813d 0540 cd3d 857e d8bc
00000130: d870 c1bc 00b6 183e 116c b63d bb6a 67bd
00000140: 55d0 383d 5e94 f9bc f27b 9ebc 92f7 ed3c
00000150: 7fc4 a9bd 066f 49bd 9cb5 05bd 350b 103d
00000160: 8dbf 123e 4f95 6f3d 39f6 b23d 5b0e 433d
00000170: 3661 ae3d 9080 c9bc 87f1 8f3c 5c54 38bd
00000180: fdc0 1dbd c0dd dd3d 19c7 d5bc 95e8 943d
00000190: 60c9 dc3d a6b4 c43d 53e5 723d ba26 9e3d
000001a0: e418 f13d b74c b0bd ee5b 00be 7899 98bd
000001b0: 4130 07bd 8634 e5bd 557a 75bc 6988 ca3d
000001c0: 96ea 743c d07b 40bc f966 aa3d 0de1 a4bd
000001d0: debc 053e 0384 e23d 2488 cd3d bf15 efbc
000001e0: bcbb 9cbc a415 ce3c eca1 f83d f194 263e
000001f0: c470 3b3e 5156 3cbd 67ad 61bc 0d73 a6bd
00000200: 413c 65bd dba8 233e 1ff6 c2bd f6f0 2c3c
00000210: e2a3 31be c536 3abd 596e c13d a7d8 963c
00000220: 9060 293c efc2 e03c bcf5 663d 9d62 e0bd
00000230: f495 3bbb 2301 0abe 7070 c53d 4094 283c
00000240: f4d8 d1bd 165c c0bd aad2 953c 47af e33d
00000250: f9cd 963d 18e8 3abd ceb0 1fbe e7af 6c3d
00000260: 3d3b 41bd bb4b 6bbd df4a aebd 91ac a2bd
00000270: ba56 bdbc 7d4d 113e 0356 04bd 82aa 3abc
00000280: b28a 133d f781 b3bc d4b1 13be bf16 8ebd
00000290: 61a9 bebd 2427 21bd ed9d 4dbc a312 57bd
000002a0: 790c 1dbd 1feb 0c3d db1b b73c 32f4 9d3d
000002b0: dfb1 87bd 5d19 dbbc 72bd 983d 28fc bd3c
000002c0: 2101 bf3d d408 c63d 6fae f03c e81d 17bd
000002d0: 198e f53c 82ef 8abd c345 333e 3b3b c83d
000002e0: 20f4 d43c 0598 33bd 236a 62bc 4a9f 493d
000002f0: 752a 41bd 8823 de3c df8c 72bd 02c3 033e
00000300: b550 40bd 0d60 12bd de33 c0bd 7f18 113c
00000310: 8541 16be 3057 903c ba0b babc 64b6 09bd
00000320: 507a 833c e8ad 49bd 63f9 a13d f271 39be
00000330: 02d0 07be 45f9 193d 645d b03b ae76 193d
00000340: 1816 88bd 7dcc 1a3d caf1 593d 0346 a5bd
00000350: 5d40 453c 7c78 06be 78aa a2bd 93a3 e03d
00000360: 7b56 c3bd 230b efbc 466f af3d bfa1 4139
00000370: 09d8 503d 734c 0ebd d5dd b7bc a46d b23b
00000380: 684f 38be cffa 0abd 2d23 86bd e057 413b
00000390: 4924 6a3d c05d 43be d22d aa3d 5af3 f73d
000003a0: a30c 703e 6f03 d53c 1d7e 3cbe 65f1 393d
000003b0: 4c16 743d 239a a23d 8c42 8d3d a1cf 5c3d
000003c0: 769a 043e 853a f13c 67fb d73d 46a7 0a3e
000003d0: 2407 f8bc c274 c33c 8f6f 753d 0b2c b4bd
000003e0: 8cd7 b5bc 6711 0bbe c103 c03d c5e8 913d
000003f0: ec9d 143d 24db 3c3d aa8c 303d 3f0e 6fbc
-0.055886455 0.11509429 -0.11359347 0.029436145 0.14645804 -0.076079585 -0.028397147 -0.037646625
0.025853232 0.004044431 0.08034654 0.04692609 0.027516704 0.036948472 0.11946346 -0.09609821
0.10106976 -0.0352706 -0.08055297 0.10055302 0.11804696 -0.09807156 -0.063314505 0.06713211
-0.024752062 -0.097558066 -0.099716514 0.074309245 -0.057809472 0.049236424 -0.099636205 0.011044571
0.04810069 -0.008737437 0.0018038213 0.083821595 -0.027567264 0.05300054 0.12011817 -0.11171961
-0.07376455 0.023577603 0.04191513 0.13199879 -0.050086305 -0.086521514 0.011748713 0.0678503
-0.057613567 0.068841904 -0.09962192 -0.026916597 -0.075641215 0.039063457 0.09285241 0.046083197
0.084783114 0.11974977 -0.12885945 -0.059027858 0.09033529 0.0557267 -0.026038377 0.0072744885
-0.082180284 -0.098526806 -0.00950681 -0.08936449 0.05578542 0.06392033 0.020618826 -0.00051493425
0.043110907 0.06307523 0.100219764 -0.026427517 -0.023613378 0.14913177 0.08907331 -0.05649827
0.045120556 -0.030466255 -0.019346211 0.029048715 -0.08289432 -0.049178146 -0.0326439 0.035166938
0.14330883 0.058492 0.087383695 0.047621112 0.08514635 -0.024597436 0.017571224 -0.045002326
-0.038514126 0.10833311 -0.026095914 0.07270924 0.10780597 0.096047685 0.059300732 0.0772223
0.11772326 -0.08608382 -0.12535068 -0.07451147 -0.033005003 -0.11191659 -0.0149827795 0.098892994
0.014948508 -0.011748269 0.08320422 -0.080507375 0.13060328 0.110603355 0.100357324 -0.029185174
-0.019132487 0.025156803 0.12140259 0.16267754 0.18304735 -0.045980755 -0.0137742525 -0.08127413
-0.055965666 0.15982382 -0.095196 0.010555496 -0.17347673 -0.04546239 0.09444875 0.018413855
0.010337964 0.027436702 0.056386694 -0.10956309 -0.0028623315 -0.13476996 0.096405864 0.010289252
-0.10246459 -0.09392564 0.018288929 0.11117416 0.07363505 -0.045631498 -0.1559479 0.05778494
-0.047175635 -0.05744527 -0.08510374 -0.07943071 -0.023112644 0.14189716 -0.03230859 -0.011393191
0.036020942 -0.021912558 -0.14423305 -0.06937932 -0.0930965 -0.039343968 -0.0125498595 -0.052508008
-0.038341973 0.034403916 0.02235215 0.07712592 -0.06625723 -0.026745493 0.07458009 0.023191527
0.09326387 0.096696526 0.029380051 -0.036893755 0.029974984 -0.06783964 0.1750708 0.09776922
0.025995314 -0.04384615 -0.01381925 0.049224176 -0.04715963 0.027116552 -0.059216376 0.12867358
-0.04695197 -0.035736132 -0.09384893 0.008855938 -0.14673431 0.0176197 -0.02271067 -0.033621207
0.016049534 -0.049238116 0.07908895 -0.18109873 -0.13262942 0.037591238 0.005382227 0.037466697
-0.06644839 0.03779267 0.053209104 -0.08069994 0.012039271 -0.13131899 -0.079426706 0.10968699
-0.09537979 -0.029180115 0.085661456 0.0001846617 0.050987277 -0.034740876 -0.022444645 0.005445199
-0.17999041 -0.033930596 -0.06549678 0.002950184 0.05716351 -0.19078732 0.08309521 0.121069625
0.2344232 0.026002614 -0.18407483 0.045396227 0.059591576 0.079395555 0.068974584 0.053908948
0.12949547 0.02944685 0.10545998 0.13540372 -0.030276842 0.023859385 0.059920844 -0.08797463
-0.022197507 -0.13580857 0.09375716 0.071244754 0.03628342 0.046107426 0.043102898 -0.014590799

fc2.bias f4 [100]
00000000: 499e f03d c44f 8ebd 67ba e5bd 0c00 87bd
00000010: 424c 25bd 999d 4f3d 519f 813d ba6a e03c
00000020: 29ed 683d 8127 4a3c 5ac8 8e3c 170a b33d
00000030: 5609 5cbd 7ca7 cf3c 2584 7fbc fd79 2bbd
00000040: 6f20 433d 9d51 4bbd adb9 953d 3db6 9a3d
00000050: 101d 0cbc 2e52 f2bc c1de 8d3d 42e0 8d3d
00000060: da14 c2bd d56c d8bb 7e3a 52bd 48d4 ccbc
00000070: 90e0 c9bd 2893 8f3d 0444 e5bb 9a45 a33d
00000080: 52ac 1f3d 2ba0 dfbd 15ab ecba ed35 7b3d
00000090: 7583 a5bc b210 aa3d 744a 6bbd fea8 87bd
000000a0: d158 b03c c2b3 16bd 00fc 16bc c479 223d
000000b0: dfe0 69bd 3489 403d 6e8b d23b 8fb8 823c
000000c0: bde0 dc3d dc03 843d 0768 6e3d 2fb0 1dbd
000000d0: 3104 5f3d 9138 e5bd 81f1 1d3a e2d9 6c3d
000000e0: 34cc a9bc 748a 973d 1b76 a03c 1552 913c
000000f0: 5c89 e43d f87f 073d 9d4b 313d 2e65 133d
00000100: 647e 893d c8bf 6f3c 3a51 49bd f709 e93b
00000110: a922 013d 1b15 693d 3d03 90bc 802e 873c
00000120: 44dc 033d 4fe4 8cbd 7cfd e03d 4097 653c
00000130: df6b e93d b0a2 65bd 6b98 8ebd 934e 6c3c
00000140: 483d e23d 205d f7bb 9ebe 16bd 72a9 033d
00000150: 33de a93d 13b4 153d ffca 8f3d eb5e ad3d
00000160: 483c cc3d 4745 5e3d cb4d 7b3d 04ed 72bd
00000170: 659e dfbd d1c9 5b3c 22c1 dc3d f60c 99bd
00000180: 6b0f 84bd 96ff edbc 9c77 dabd a9d2 26bd
0.117489405 -0.06948808 -0.11217194 -0.06591806 -0.04035593 0.050687406 0.06329215 0.027394641
0.0568668 0.01233852 0.01742952 0.08742159 -0.05371984 0.025348417 -0.015595471 -0.041864384
0.047638353 -0.04963838 0.073108055 0.075542904 -0.008551851 -0.029580202 0.069272526 0.069275394
-0.09476633 -0.0066047707 -0.051325314 -0.025003567 -0.09857285 0.0701049 -0.0069966335 0.0797226
0.038982697 -0.109192215 -0.0018056358 0.061330725 -0.020204285 0.08303966 -0.05744405 -0.066240296
0.021526726 -0.036792524 -0.009215355 0.039666906 -0.05709922 0.047005847 0.0064253127 0.015957145
0.10785053 0.064460486 0.058204677 -0.0384981 0.054447357 -0.1119243 0.00060250616 0.057824977
-0.020727254 0.07399455 0.019587567 0.017739335 0.11159012 0.033081025 0.043285 0.035985164
0.0671356 0.014633127 -0.04914973 0.0071117836 0.031527195 0.056904893 -0.01757967 0.016501665
0.032192484 -0.06879484 0.10985848 0.014013112 0.11397528 -0.056063354 -0.06962665 0.01442303
0.11046845 -0.007548943 -0.03680288 0.032144018 0.08294334 0.036548685 0.0702114 0.0846537
0.09972435 0.054265287 0.061353486 -0.059308067 -0.10918883 0.013414816 0.10779025 -0.07473175
-0.06448253 -0.029052537 -0.10667345 -0.040728245

fc3.weight f4 [100, 100]
00000000: 88b3 883d 08ab 383d b54e 7f3d 6294 ad3c
00000010: 8257 8cbd 2760 da3c 7300 cbbd 4390 823d
00000020: c591 fb3d b52e 133a 4c9b 36bd ff9a 063d
00000030: e203 34bd 0347 2e3b 5e43 1dbc de8a 073d
00000040: f4e0 9cbd d5e3 e43d 5a16 973d d68a 0abe
00000050: 2459 4dbd 6ebc 9b3d ac52 673b c5cf 3ebd
00000060: 0017 393c a1f8 543c a3d5 8e3d 34e1 bdbc
00000070: d041 48bc e8da 523d 31c5 14bb f5de 81bd
00000080: 6b24 07be a242 2cbe 216c eabc 82b8 cd3c
00000090: aa74 9f3d 42fd 493d 29df 173e 19bd 05ba
000000a0: 9dfb e0bd 9345 bbbd e6bd 50bc 3572 98bd
000000b0: d7c0 01bd 2a96 d93d dfdf 25bc 086d 053c
000000c0: 0dc4 a6bc 9a13 27bc d795 91bd 1930 f03a
000000d0: 7661 c93d 04ad 91bd f709 1b3d 60c1 3d3d
000000e0: 6e27 d0bc 4e0f 21bd 248e 00bd a003 533d
000000f0: da14 c1bc 5925 08be 7a7e 3a3d 87b6 6f3d
00000100: 3c6a 21bd d804 c7bd b0a2 d3bc 0801 bbbc
00000110: 9529 febb 3624 0a3d b030 683d 34cc 1dbd
00000120: 5f50 64bd cfb9 9d3c 88bb 933c e191 18bd
00000130: ccce 443d da08 1b3d d566 86ba 694a 1f3d
00000140: 3019 9d3d 55b1 d4bc 436e 0b3e f98c 343d
00000150: 39b3 cfbc 7964 88bd 6833 8cbd 4d63 dfbd
00000160: 06d2 c13d af1a 1f3c 1fda c23d 68b5 513d
00000170: 3da8 f33c 48aa ba3d 1fe1 ef3c aa1b a13c
00000180: f044 cb3c 0926 e13c a18a 0a3d 8b80 113b
00000190: 8038 f73d ff49 24bd ba5e 8fbd 6488 f6bd
000001a0: 77ef f6bd 97d0 3e3d cee5 793d 043a 343e
000001b0: 019f fd3c 9717 81bd 2d7e 3abd 8073 6f3d
000001c0: 4a03 2fbd ddb3 983d 253b 09bd 1177 2bbe
000001d0: e90b c7bd 0985 103d 1efc b73c d242 7dbc
000001e0: 0c2f ea3c be39 103d 444c 443c 739b febb
000001f0: dc89 dfbd e4aa e83d a98f b63c b361 94bd
00000200: c8fc 1fbd aac3 f2bd d489 1ebb d497 8f3c
00000210: 888c 06be 98e8 03be d5ac 1b3d 19ea 96bd
00000220: 22e1 0ebe de3c 32be 4d1b 8abd 54b2 05bb
00000230: 742e f5bd d2bd b43c 083f a7bd a934 7c3d
00000240: 0de8 8c3d 938a c2bd 3154 c63c 1a49 e53d
00000250: 1534 26ba 4d12 83bd 1437 b5bc 237a 2f3d
00000260: b599 40be 9d33 4abe 6417 09bd a98c 8a3d
00000270: 8831 763d 1bc8 5d3d 7be5 5d3d 45d9 d4bd
00000280: ea88 02be 5e68 e4bd 526c 033e 9a2b a9bd
00000290: c5a6 babd e8af f43c ba59 643d c0b5 213e
000002a0: 136a 313e 3296 8a3b 56af 143d e576 a9bb
000002b0: 3891 99bd 18b9 1ebd 94ac 7fbd 82b5 a8bc
000002c0: d656 f0bd 6bce 813b 7ca4 0f3e 04a2 ac3b
000002d0: 6160 5a3d 2a62 e1bd a91b 02be 738b 623d
000002e0: b180 9d3d 7eb4 273e cb77 40bd 1faf 223d
000002f0: c74f 13be b9d5 45be dae7 57bd 84bf b73d
00000300: fd52 6cbd 1946 6a3d 08d4 973d 659e 61bd
00000310: b36d d8bd a4f8 b43d b805 bf3d 55ac 5b3d
00000320: f684 17bd 8174 4bbd e71e 353e 8ee9 483d
00000330: 7d69 e83c a549 cc3d 98cc ea3c 35cf 31bd
00000340: 4529 dbbb a4f9 9bbd 256b aabe 984c 273d
00000350: 9eda 473e 5af4 7d3e 8d29 81be c523 44bd
00000360: 497a eebd 0c4a 113d 3a4f b0bd b3cc b6bc
00000370: d232 45be 4f8a b63d 0c80 8b3d 815d a8bd
00000380: a298 f33b 6516 a2be 52f7 dc3d 5509 0ebe
00000390: d907 7e3c f4e0 86bd 9572 76be ecd4 bebe
000003a0: 7933 283d 91aa 3a3e 9b66 5b3d 5dab a2bd
000003b0: fb21 2f3d cca0 d5bd 2d66 b4bd e556 6dbc
000003c0: 12f6 b13d 12e9 ff3b 5384 5d3e ffe5 74be
000003d0: fa35 14be 39dd 76bd 0f5b 31be 77f7 77bd
000003e0: ee0f 1fbe 45ed 123e b154 363c c253 8e3e
000003f0: 2e7c aabd 510e e0bd 32a0 a5bd ac4c f43d
0.06674868 0.045084983 0.06233092 0.021188919 -0.06852628 0.026657177 -0.09912195 0.06375172
0.12283663 0.0005614565 -0.044581696 0.03286266 -0.043949015 0.002659262 -0.009598581 0.03309142
-0.07660094 0.11176268 0.0737731 -0.13529524 -0.05013384 0.076042995 0.003529708 -0.046584863
0.0112969875 0.012998731 0.06974342 -0.023178674 -0.012222722 0.051478297 -0.0022700543 -0.06341354
-0.13197486 -0.16822293 -0.028616013 0.025112394 0.07785924 0.04931379 0.14831223 -0.0005101725
-0.109854914 -0.091441296 -0.012740588 -0.07443658 -0.031678047 0.10624345 -0.010124176 0.008143671
-0.020357156 -0.0101975445 -0.07108658 0.0018324881 0.09833042 -0.07113078 0.0378513 0.046326995
-0.025409427 -0.039321236 -0.031385556 0.05151713 -0.023569513 -0.13295497 0.045530774 0.05852368
-0.039407954 -0.09717721 -0.025834411 -0.02282764 -0.007756422 0.03372594 0.056687057 -0.03852482
-0.05574071 0.01925364 0.018033758 -0.037248496 0.04804878 0.03785024 -0.0010254035 0.038889322
0.0767082 -0.025963465 0.1361628 0.044079755 -0.025354015 -0.06659789 -0.068457425 -0.10907612
0.09463887 0.009710952 0.095142595 0.051198393 0.029743308 0.0911451 0.02928215 0.019666512
0.024813145 0.027483957 0.033823613 0.0022201862 0.120713234 -0.04010963 -0.070004895 -0.12037733
-0.12057393 0.046585646 0.061010174 0.17600256 0.030959608 -0.063033275 -0.045530487 0.05845976
-0.042727746 0.07456181 -0.03350367 -0.16744639 -0.097190686 0.035283122 0.022459086 -0.015457826
0.028586887 0.035211317 0.011981074 -0.007769996 -0.109149665 0.1136072 0.0222853 -0.07245197
-0.03905943 -0.11853726 -0.0024191039 0.017528452 -0.13139546 -0.12881696 0.038006622 -0.07368869
-0.13953069 -0.17406031 -0.067434885 -0.0020400481 -0.11971751 0.02206317 -0.08166319 0.06157366
0.06880198 -0.09499087 0.024210067 0.11195584 -0.0006340158 -0.06399975 -0.02212099 0.042841088
-0.18808635 -0.19746251 -0.033469573 0.0676511 0.06010583 0.054145914 0.054173928 -0.103930034
-0.12747541 -0.11152719 0.1283429 -0.082602695 -0.0911384 0.029869035 0.055749632 0.15791988
0.1732562 0.0042293305 0.036300026 -0.005171644 -0.074984014 -0.038750738 -0.062420443 -0.020594362
-0.11735313 0.0039613745 0.1402759 0.005268337 0.05331457 -0.110050514 -0.12705864 0.05530877
0.076905616 0.16377446 -0.046989243 0.03971779 -0.14385901 -0.1931981 -0.052711345 0.089720756
-0.05769633 0.057195757 0.074134886 -0.055082697 -0.105677985 0.08836487 0.09327263 0.053631146
-0.036992036 -0.049671654 0.1768757 0.04905086 0.028370613 0.09974984 0.028662011 -0.0434105
-0.0066882693 -0.076159745 -0.3328487 0.04084453 0.1951699 0.24800244 -0.25227013 -0.047885675
-0.11644418 0.035471007 -0.08608861 -0.022314405 -0.19257668 0.08913099 0.068115324 -0.082209595
0.0074339667 -0.3165771 0.1078936 -0.13870747 0.015504801 -0.06585875 -0.24067147 -0.37271821
0.041064713 0.18229128 0.05356465 -0.07942841 0.042757016 -0.1043106 -0.08808551 -0.014486049
0.08689512 0.0078097666 0.21632509 -0.23915862 -0.14473715 -0.060269568 -0.17319892 -0.060538735
-0.1553342 0.14348324 0.01112859 0.27798277 -0.08324467 -0.10940231 -0.080871955 0.119286865

fc3.bias f4 [100]
00000000: 28f0 17bc f5e3 303d 95cd 473c 0b6a 0b3d
00000010: b67d 683d 78d4 5a3d f32a a33d d31d 88ba
00000020: a1c8 883d 085d 8ebd 9eae 273d eacc 61bd
00000030: a29b 063e 68e1 be3d dbb5 dcbd 60ab babd
00000040: f797 0fbc 919c 13bd 17db 9bbd 6888 b33d
00000050: ab04 b33d c01c 16bc e92f f6bd 41c9 b23d
00000060: 1ba0 8bbd e49d 793d 5b0e 6e3d e10a cebc
00000070: e7b0 4a3d aa1b 85bd 8621 1dbd 0dac d5bc
00000080: a5f1 14be a0eb a03c 802e 4b3d ccc0 68bd
00000090: b325 b43d a15a 843c 39a7 95bb 1e75 0dbc
000000a0: b6a7 b7bd a6bd d13d 2728 313d 0caa 44bd
000000b0: 45eb 8eba 9868 babd eb83 86bd 6e84 1abd
000000c0: 17fc 9c3d f6c9 91bd 5330 bbbd 6f36 cd3d
000000d0: 5c39 8dbd 881f b3bc 896d 79bd 3882 f03c
000000e0: a83f 9dba 2f4f c03d 8729 dbbd 020e 16bd
000000f0: 007c d0bd a349 423c a5e8 643d 957c 26bd
00000100: aab2 123d 92c5 043d cc6e df3c bbb5 6f3c
00000110: f791 21bb e631 613d 7732 b7bd 2b26 aa3c
00000120: eba2 d23d 65b1 5abd 850c afbd 4b57 8dbd
00000130: 3a4c d4bc a8a6 c13d fbeb efbd 024c 09be
00000140: ed8d 29bb 84d6 ebbd 5693 433d 3c91 b4bd
00000150: 424d b2bd 4731 85bd 6469 133d 5dc3 2a3d
00000160: 1aa3 353d e9b2 263d 235f 343d dd17 7ebd
00000170: 81dd 993d 8345 71bd c5e8 9abd 7cb2 8cbd
00000180: bb79 e43d 335f da3c b916 88bd b22e 08bb
-0.009273566 0.043186147 0.012195011 0.034036677 0.056760512 0.053425282 0.07967176 -0.0010384865
0.06678892 -0.06951338 0.040938012 -0.055127062 0.13145307 0.093203366 -0.10776874 -0.091147184
-0.008764259 -0.036037985 -0.076101474 0.08766252 0.08741125 -0.009162128 -0.12020857 0.087297924
-0.06817647 0.06094159 0.05811916 -0.025151672 0.049485113 -0.06499417 -0.03836205 -0.026083017
-0.14545305 0.019643605 0.049604893 -0.05682449 0.08796253 0.016156496 -0.0045670536 -0.00863388
-0.08967535 0.10241251 0.043251183 -0.04801373 -0.0010903856 -0.09101981 -0.0656813 -0.03772395
0.0766527 -0.07118599 -0.091400765 0.10020148 -0.06895706 -0.021865621 -0.060895476 0.029358968
-0.001199712 0.09390103 -0.1070128 -0.036634453 -0.10179901 0.011858377 0.05588593 -0.040646154
0.03581492 0.03241498 0.027274512 0.01463073 -0.0024653652 0.054979227 -0.08945172 0.020770153
0.102849804 -0.053391833 -0.0854731 -0.069014154 -0.025915254 0.09455615 -0.117149316 -0.13407901
-0.0025871948 -0.11515525 0.047747932 -0.08816764 -0.08706142 -0.065035395 0.03598918 0.04169022
0.044345 0.040697966 0.044036042 -0.062034477 0.07512952 -0.058904182 -0.075639285 -0.06869981
0.11156031 0.026656723 -0.06644959 -0.0020779786

fc4.weight f4 [8, 100]
00000000: c783 57bb eb5d 0e3e d164 7238 7463 d73c
00000010: bde2 a53d 3be2 293f c39b d13d e183 4e3c
00000020: 1d6e 0b3b 363b a5bc c18e df3d a48c 7bbd
00000030: f23d 18bd d149 f0bd 9d49 4dbe 0d7c 5abd
00000040: 7ca2 e13d dd1d 263d 5f71 15bd 77db 743d
00000050: f23e 0e3e cc9c 01be 41fd b13c 304e 783d
00000060: b5d8 57bd 2bf4 263d cbf6 133c b58f 87bc
00000070: fdec 193d b068 40bb 9eea 683e c8da 683c
00000080: 560c e23c dfc4 f33c d640 983d 2ad1 92bd
00000090: a960 f13d 82a8 80bd df96 e93c d797 133e
000000a0: d80c aebd f5a5 33bc 6f8e 953d 6de8 a5bd
000000b0: c818 b93d acbc 99bd df38 82bd 1d0c c13d
000000c0: 8720 8e3c b662 bfba d0a4 9f3d d711 553d
000000d0: 4f8b 2abe 51fa 2a3c 4ffe b6bd a101 013d
000000e0: cf7c c53d 5602 28bd 8129 243e 4a20 1e3e
000000f0: 4388 2dbe 065a c33c d597 123d 0bbe 78bc
00000100: 3d62 e8bc 4d1d d93c d12b 37bd d2bd 7b3d
00000110: b688 a43d 3c09 f8bc 4d2e 3c3e c38b 47bd
00000120: ceb0 9f3b f1ac f93d d381 8aba 1875 903d
00000130: b0e8 d63a 28d8 4dbc e652 e8bb 9766 2f3c
00000140: d1e9 de3d eec9 e7bd 416c cdbd b101 b1bd
00000150: 2d80 2bbc 4958 fe3c 74b4 1d3d 5880 b4bd
00000160: 29fa 3e3e 64df 0e3c 37cd 45bd ff1a 9d3d
00000170: 1806 cf3d a67a 1cbd d95d 0fbe 601b 0e3d
00000180: 0720 50be 0533 36bc fc04 a93d d2de 973d
00000190: de37 073c 23f9 903a 0a50 323e 19a6 d73c
000001a0: df4d 72bd 8937 503e 4e90 033e 98f2 253c
000001b0: e0aa 113c eba3 3e3d 632b 3ebd 7487 71bd
000001c0: c265 1ebe 14c7 97bd 3a4f 253d f21d d6bd
000001d0: 26b0 a73b 8469 7ebd 00f8 14bd 8b9d 54bd
000001e0: c3a0 ecbd fa8c 41bd 518a babd 17de c33d
000001f0: 17c8 c8bd bb1b 8bbd db54 9abb 25f7 87bd
00000200: a743 7b3d 83e0 7a3d 8e0c 42bd 475e 53bd
00000210: 521f 83bc a3c2 083d 2d5e 66bd aa81 7f3d
00000220: 8246 133d 90a0 813c 9760 fa3c 83fc 093e
00000230: 9144 36bd e71c f23b eb43 50bb 6c61 a63c
00000240: 6ac0 a13d dd37 e03c 3b57 143d 4654 0c3e
00000250: 8bfc 22bd ba0a 88bd fd59 b03c d859 d33b
00000260: 1342 8d3c 2266 dabc 04d1 0a3d 62fc d8bc
00000270: c497 c13d c836 053a 790c 313d 274b 9a3e
00000280: 56df 67bd 8767 b3bc 3941 a33d 629a 253d
00000290: 3a37 3abd a723 58bd 0514 92bc a19a b23d
000002a0: 4e65 a6bc 194c 5f3d 903e c9bc e84e b43c
000002b0: 013f bb3c 67ce d7bd 55a7 5ebd 4dde 37be
000002c0: 3800 343d 562f 5cbc 77c5 8fbc 2434 2bbe
000002d0: 518c f53c c0b3 c63d 95c1 4a3d 4fa2 a5bd
000002e0: 8a6b c73c 2b68 903d 6625 0abb bfdf ab3c
000002f0: 9c08 f13c ffeb 5c3c d88d f43c 4d62 06be
00000300: 3630 c93d d606 c4bd c182 1cbc ce8c 083d
00000310: 73e2 d8bd 13a0 d63b c47a 953c 0eb1 ccbd
00000320: c573 0b3b a2a8 99bd 50f7 c43d 1ff2 363d
00000330: 1f2e 123d adbe 9c3d f1fc ec3d 6de9 76bb
00000340: 2e05 443d a053 eb3b c25a a8bd 0119 29be
00000350: c6c1 6e3c c8c3 f9bc 7a4b 8cbd a57c 8abd
00000360: f962 84bd 61b7 b13d 0fe2 33bb b624 ab3c
00000370: 53d7 89bc 522b c4bd 7198 8f3d b284 96bd
00000380: 2556 193a f761 c4bc 1dcb ddbd 1b48 203d
00000390: b92e 9b3d 2b16 c93c 8317 16b7 cfc8 733d
000003a0: 324c 273d 31c9 083d fe5a 9c3d ec28 c8bb
000003b0: dde2 de3d 53d5 ebbc 0a55 8fbc c193 52bd
000003c0: 832e ed3c 3829 78bd f8e0 9bbb 9cb2 d4bb
000003d0: 2276 f8bd a677 82bd 3457 2dbd 6a82 f2bc
000003e0: f130 b6bc bb29 8abd c436 d5bd a486 39bd
000003f0: e0bc bd3d b78a 453c a505 84bd 9942 46bc
-0.0032884942 0.13903014 5.779119e-05 0.02629254 0.080998875 0.66360825 0.10234787 0.012604685
0.002127535 -0.020169836 0.109159 -0.061413422 -0.03716845 -0.11732829 -0.20047612 -0.05334096
0.110173196 0.040555824 -0.036485072 0.05977961 0.13891199 -0.1265747 0.021727206 0.06062144
-0.052696902 0.0407602 0.009031008 -0.016548017 0.037579525 -0.0029359274 0.2274575 0.014212318
0.027593773 0.029756961 0.074342415 -0.07168801 0.117860146 -0.0628214 0.028514324 0.14413391
-0.084985435 -0.01096486 0.07302558 -0.08100972 0.0903793 -0.075066894 -0.063585036 0.094261386
0.017349495 -0.0014601562 0.07795107 0.052018967 -0.16654705 0.010435657 -0.08935224 0.031495694
0.09642946 -0.041017853 0.16031457 0.15442005 -0.16946511 0.023846637 0.03578933 -0.0151820285
-0.028367156 0.02650323 -0.04471952 0.061460324 0.08033888 -0.03027784 0.18377037 -0.04871727
0.0048733717 0.12191189 -0.0010567255 0.07053584 0.001639625 -0.012563743 -0.0070899604 0.010705612
0.10884441 -0.11317812 -0.100304134 -0.08642901 -0.010467571 0.031047957 0.03850217 -0.08813542
0.18650116 0.008720253 -0.04829141 0.07671165 0.10108584 -0.038202904 -0.14000644 0.034694076
-0.20324717 -0.011120562 0.08252904 0.074155465 0.008253066 0.0011060577 0.17413345 0.026324319
-0.059156295 0.20333685 0.12848017 0.01012864 0.008890837 0.046543043 -0.046428096 -0.05896707
-0.15468505 -0.07411018 0.04035876 -0.1045493 0.005117434 -0.062112346 -0.036369324 -0.051908057
-0.115541 -0.047253586 -0.09108413 0.09563845 -0.09803789 -0.067923985 -0.0047098226 -0.06638936
0.061343815 0.061249267 -0.047375254 -0.05160358 -0.016006146 0.033388745 -0.056242157 0.062379517
0.035955913 0.015823632 0.030563636 0.13475232 -0.044498984 0.0073886993 -0.0031778764 0.020310126
0.07898028 0.027370388 0.036216002 0.13704023 -0.039791625 -0.06642671 0.021527285 0.006449919
0.01724342 -0.026660029 0.03389074 -0.026487533 0.09452775 0.00050817104 0.043224785 0.30135462
-0.056609474 -0.021899952 0.079714246 0.040430434 -0.045462824 -0.052768376 -0.017831812 0.087208994
-0.020311978 0.05451593 -0.024565965 0.022010282 0.022857191 -0.10537415 -0.0543588 -0.17955895
0.04394552 -0.01343902 -0.017550213 -0.16719109 0.029974135 0.09702253 0.04950102 -0.080875985
0.02434327 0.070511185 -0.002107942 0.020980714 0.02942305 0.013484 0.029852793 -0.13123436
0.09823649 -0.09571616 -0.009552659 0.033337407 -0.10590067 0.006549844 0.018247016 -0.09994708
0.002127872 -0.07502867 0.096174836 0.0446645 0.035688516 0.07653556 0.11571682 -0.0037675754
0.047856502 0.0071815997 -0.08220436 -0.16513444 0.014572566 -0.030488864 -0.068503335 -0.06762055
-0.0646419 0.08677555 -0.0027447974 0.020891529 -0.016826307 -0.09578575 0.07011498 -0.07349528
0.00058493234 -0.023972495 -0.108297564 0.039131265 0.07577271 0.024546703 -8.946171e-06 0.059517678
0.04084415 0.033394996 0.07634543 -0.006108394 0.108831145 -0.028788244 -0.017496604 -0.05141044
0.028952843 -0.060586184 -0.004757043 -0.0064910185 -0.12131907 -0.063704774 -0.04231949 -0.029603202
-0.022240134 -0.06746241 -0.10410836 -0.04529442 0.09264541 0.012056998 -0.06446389 -0.012100839

fc4.bias f4 [8]
00000000: e2ce a7bb 862b 6bbc 30e9 d03d 7bab b83d
00000010: bf9c 27bc 85d7 d0bc 4027 87bd 4ca3 0cbd
-0.005121098 -0.0143536385 0.10200727 0.09017082 -0.010230242 -0.025493393 -0.06599283 -0.03433542
